…
save_path: exp/s3dis/pointtransformer_repro
split: val
start_epoch: 0
step_epoch: 30
sync_bn: False
test_area: 5
test_gpu: [0]
test_list: dataset/s3dis/list/val5.txt
test_list_full: dataset/s3dis/list/val5_full.txt
test_workers: 4
train_gpu: [0]
use_xyz: True
voxel_max: 80000
voxel_size: 0.04
weight: None
weight_decay: 0.0001
workers: 16
world_size: 1
[2021-12-10 18:27:00,368 INFO train.py line 123 11219] => creating model ...
[2021-12-10 18:27:00,368 INFO train.py line 124 11219] Classes: 13
[2021-12-10 18:27:00,368 INFO train.py line 125 11219] Net(
  (mlp_input): Sequential(
    (0): Sequential(
      (0): Linear(in_features=3, out_features=32, bias=True)
      (1): BatchNorm1d(32, eps=1e-05, momentum=0.1, affine=True, track_running_stats=True)
      (2): ReLU()
    )
  )
  (transformer_input): TransformerBlock(
    (lin_in): Linear(in_features=32, out_features=32, bias=False)
    (lin_out): Linear(in_features=32, out_features=32, bias=False)
    (pos_nn): Sequential(
      (0): Sequential(
        (0): Sequential(
          (0): Linear(in_features=3, out_features=3, bias=True)
          (1): BatchNorm1d(3, eps=1e-05, momentum=0.1, affine=True, track_running_stats=True)
          (2): ReLU()
        )
      )
      (1): Linear(in_features=3, out_features=32, bias=True)
    )
    (attn_nn): Sequential(
      (0): BatchNorm1d(32, eps=1e-05, momentum=0.1, affine=True, track_running_stats=True)
      (1): ReLU()
      (2): Sequential(
        (0): Sequential(
          (0): Linear(in_features=32, out_features=4, bias=True)
          (1): BatchNorm1d(4, eps=1e-05, momentum=0.1, affine=True, track_running_stats=True)
          (2): ReLU()
        )
      )
      (3): Linear(in_features=4, out_features=32, bias=True)
    )
    (transformer): PointTransformerConv(32, 32)
    (bn1): BatchNorm1d(32, eps=1e-05, momentum=0.1, affine=True, track_running_stats=True)
    (bn2): BatchNorm1d(32, eps=1e-05, momentum=0.1, affine=True, track_running_stats=True)
    (bn3): BatchNorm1d(32, eps=1e-05, momentum=0.1, affine=True, track_running_stats=True)
  )
  (encoders): ModuleList(
    (0): Sequential(
      (0): TransitionDown(
        (mlp): Sequential(
          (0): Sequential(
            (0): Linear(in_features=32, out_features=64, bias=False)
            (1): BatchNorm1d(64, eps=1e-05, momentum=0.1, affine=True, track_running_stats=True)
            (2): ReLU()
          )
        )
      )
      (1): TransformerBlock(
        (lin_in): Linear(in_features=64, out_features=64, bias=False)
        (lin_out): Linear(in_features=64, out_features=64, bias=False)
        (pos_nn): Sequential(
          (0): Sequential(
            (0): Sequential(
              (0): Linear(in_features=3, out_features=3, bias=True)
              (1): BatchNorm1d(3, eps=1e-05, momentum=0.1, affine=True, track_running_stats=True)
              (2): ReLU()
            )
          )
          (1): Linear(in_features=3, out_features=64, bias=True)
        )
        (attn_nn): Sequential(
          (0): BatchNorm1d(64, eps=1e-05, momentum=0.1, affine=True, track_running_stats=True)
          (1): ReLU()
          (2): Sequential(
            (0): Sequential(
              (0): Linear(in_features=64, out_features=8, bias=True)
              (1): BatchNorm1d(8, eps=1e-05, momentum=0.1, affine=True, track_running_stats=True)
              (2): ReLU()
            )
          )
          (3): Linear(in_features=8, out_features=64, bias=True)
        )
        (transformer): PointTransformerConv(64, 64)
        (bn1): BatchNorm1d(64, eps=1e-05, momentum=0.1, affine=True, track_running_stats=True)
        (bn2): BatchNorm1d(64, eps=1e-05, momentum=0.1, affine=True, track_running_stats=True)
        (bn3): BatchNorm1d(64, eps=1e-05, momentum=0.1, affine=True, track_running_stats=True)
      )
      (2): TransformerBlock(
        (lin_in): Linear(in_features=64, out_features=64, bias=False)
        (lin_out): Linear(in_features=64, out_features=64, bias=False)
        (pos_nn): Sequential(
          (0): Sequential(
            (0): Sequential(
              (0): Linear(in_features=3, out_features=3, bias=True)
              (1): BatchNorm1d(3, eps=1e-05, momentum=0.1, affine=True, track_running_stats=True)
              (2): ReLU()
            )
          )
          (1): Linear(in_features=3, out_features=64, bias=True)
        )
        (attn_nn): Sequential(
          (0): BatchNorm1d(64, eps=1e-05, momentum=0.1, affine=True, track_running_stats=True)
          (1): ReLU()
          (2): Sequential(
            (0): Sequential(
              (0): Linear(in_features=64, out_features=8, bias=True)
              (1): BatchNorm1d(8, eps=1e-05, momentum=0.1, affine=True, track_running_stats=True)
              (2): ReLU()
            )
          )
          (3): Linear(in_features=8, out_features=64, bias=True)
        )
        (transformer): PointTransformerConv(64, 64)
        (bn1): BatchNorm1d(64, eps=1e-05, momentum=0.1, affine=True, track_running_stats=True)
        (bn2): BatchNorm1d(64, eps=1e-05, momentum=0.1, affine=True, track_running_stats=True)
        (bn3): BatchNorm1d(64, eps=1e-05, momentum=0.1, affine=True, track_running_stats=True)
      )
    )
    (1): Sequential(
      (0): TransitionDown(
        (mlp): Sequential(
          (0): Sequential(
            (0): Linear(in_features=64, out_features=128, bias=False)
            (1): BatchNorm1d(128, eps=1e-05, momentum=0.1, affine=True, track_running_stats=True)
            (2): ReLU()
          )
        )
      )
      (1): TransformerBlock(
        (lin_in): Linear(in_features=128, out_features=128, bias=False)
        (lin_out): Linear(in_features=128, out_features=128, bias=False)
        (pos_nn): Sequential(
          (0): Sequential(
            (0): Sequential(
              (0): Linear(in_features=3, out_features=3, bias=True)
              (1): BatchNorm1d(3, eps=1e-05, momentum=0.1, affine=True, track_running_stats=True)
              (2): ReLU()
            )
          )
          (1): Linear(in_features=3, out_features=128, bias=True)
        )
        (attn_nn): Sequential(
          (0): BatchNorm1d(128, eps=1e-05, momentum=0.1, affine=True, track_running_stats=True)
          (1): ReLU()
          (2): Sequential(
            (0): Sequential(
              (0): Linear(in_features=128, out_features=16, bias=True)
              (1): BatchNorm1d(16, eps=1e-05, momentum=0.1, affine=True, track_running_stats=True)
              (2): ReLU()
            )
          )
          (3): Linear(in_features=16, out_features=128, bias=True)
        )
        (transformer): PointTransformerConv(128, 128)
        (bn1): BatchNorm1d(128, eps=1e-05, momentum=0.1, affine=True, track_running_stats=True)
        (bn2): BatchNorm1d(128, eps=1e-05, momentum=0.1, affine=True, track_running_stats=True)
        (bn3): BatchNorm1d(128, eps=1e-05, momentum=0.1, affine=True, track_running_stats=True)
      )
      (2): TransformerBlock(
        (lin_in): Linear(in_features=128, out_features=128, bias=False)
        (lin_out): Linear(in_features=128, out_features=128, bias=False)
        (pos_nn): Sequential(
          (0): Sequential(
            (0): Sequential(
              (0): Linear(in_features=3, out_features=3, bias=True)
              (1): BatchNorm1d(3, eps=1e-05, momentum=0.1, affine=True, track_running_stats=True)
              (2): ReLU()
            )
          )
          (1): Linear(in_features=3, out_features=128, bias=True)
        )
        (attn_nn): Sequential(
          (0): BatchNorm1d(128, eps=1e-05, momentum=0.1, affine=True, track_running_stats=True)
          (1): ReLU()
          (2): Sequential(
            (0): Sequential(
              (0): Linear(in_features=128, out_features=16, bias=True)
              (1): BatchNorm1d(16, eps=1e-05, momentum=0.1, affine=True, track_running_stats=True)
              (2): ReLU()
            )
          )
          (3): Linear(in_features=16, out_features=128, bias=True)
        )
        (transformer): PointTransformerConv(128, 128)
        (bn1): BatchNorm1d(128, eps=1e-05, momentum=0.1, affine=True, track_running_stats=True)
        (bn2): BatchNorm1d(128, eps=1e-05, momentum=0.1, affine=True, track_running_stats=True)
        (bn3): BatchNorm1d(128, eps=1e-05, momentum=0.1, affine=True, track_running_stats=True)
      )
      (3): TransformerBlock(
        (lin_in): Linear(in_features=128, out_features=128, bias=False)
        (lin_out): Linear(in_features=128, out_features=128, bias=False)
        (pos_nn): Sequential(
          (0): Sequential(
            (0): Sequential(
              (0): Linear(in_features=3, out_features=3, bias=True)
              (1): BatchNorm1d(3, eps=1e-05, momentum=0.1, affine=True, track_running_stats=True)
              (2): ReLU()
            )
          )
          (1): Linear(in_features=3, out_features=128, bias=True)
        )
        (attn_nn): Sequential(
          (0): BatchNorm1d(128, eps=1e-05, momentum=0.1, affine=True, track_running_stats=True)
          (1): ReLU()
          (2): Sequential(
            (0): Sequential(
              (0): Linear(in_features=128, out_features=16, bias=True)
              (1): BatchNorm1d(16, eps=1e-05, momentum=0.1, affine=True, track_running_stats=True)
              (2): ReLU()
            )
          )
          (3): Linear(in_features=16, out_features=128, bias=True)
        )
        (transformer): PointTransformerConv(128, 128)
        (bn1): BatchNorm1d(128, eps=1e-05, momentum=0.1, affine=True, track_running_stats=True)
        (bn2): BatchNorm1d(128, eps=1e-05, momentum=0.1, affine=True, track_running_stats=True)
        (bn3): BatchNorm1d(128, eps=1e-05, momentum=0.1, affine=True, track_running_stats=True)
      )
    )
    (2): Sequential(
      (0): TransitionDown(
        (mlp): Sequential(
          (0): Sequential(
            (0): Linear(in_features=128, out_features=256, bias=False)
            (1): BatchNorm1d(256, eps=1e-05, momentum=0.1, affine=True, track_running_stats=True)
            (2): ReLU()
          )
        )
      )
      (1): TransformerBlock(
        (lin_in): Linear(in_features=256, out_features=256, bias=False)
        (lin_out): Linear(in_features=256, out_features=256, bias=False)
        (pos_nn): Sequential(
          (0): Sequential(
            (0): Sequential(
              (0): Linear(in_features=3, out_features=3, bias=True)
              (1): BatchNorm1d(3, eps=1e-05, momentum=0.1, affine=True, track_running_stats=True)
              (2): ReLU()
            )
          )
          (1): Linear(in_features=3, out_features=256, bias=True)
        )
        (attn_nn): Sequential(
          (0): BatchNorm1d(256, eps=1e-05, momentum=0.1, affine=True, track_running_stats=True)
          (1): ReLU()
          (2): Sequential(
            (0): Sequential(
              (0): Linear(in_features=256, out_features=32, bias=True)
              (1): BatchNorm1d(32, eps=1e-05, momentum=0.1, affine=True, track_running_stats=True)
              (2): ReLU()
            )
          )
          (3): Linear(in_features=32, out_features=256, bias=True)
        )
        (transformer): PointTransformerConv(256, 256)
        (bn1): BatchNorm1d(256, eps=1e-05, momentum=0.1, affine=True, track_running_stats=True)
        (bn2): BatchNorm1d(256, eps=1e-05, momentum=0.1, affine=True, track_running_stats=True)
        (bn3): BatchNorm1d(256, eps=1e-05, momentum=0.1, affine=True, track_running_stats=True)
      )
      (2): TransformerBlock(
        (lin_in): Linear(in_features=256, out_features=256, bias=False)
        (lin_out): Linear(in_features=256, out_features=256, bias=False)
        (pos_nn): Sequential(
          (0): Sequential(
            (0): Sequential(
              (0): Linear(in_features=3, out_features=3, bias=True)
              (1): BatchNorm1d(3, eps=1e-05, momentum=0.1, affine=True, track_running_stats=True)
              (2): ReLU()
            )
          )
          (1): Linear(in_features=3, out_features=256, bias=True)
        )
        (attn_nn): Sequential(
          (0): BatchNorm1d(256, eps=1e-05, momentum=0.1, affine=True, track_running_stats=True)
          (1): ReLU()
          (2): Sequential(
            (0): Sequential(
              (0): Linear(in_features=256, out_features=32, bias=True)
              (1): BatchNorm1d(32, eps=1e-05, momentum=0.1, affine=True, track_running_stats=True)
              (2): ReLU()
            )
          )
          (3): Linear(in_features=32, out_features=256, bias=True)
        )
        (transformer): PointTransformerConv(256, 256)
        (bn1): BatchNorm1d(256, eps=1e-05, momentum=0.1, affine=True, track_running_stats=True)
        (bn2): BatchNorm1d(256, eps=1e-05, momentum=0.1, affine=True, track_running_stats=True)
        (bn3): BatchNorm1d(256, eps=1e-05, momentum=0.1, affine=True, track_running_stats=True)
      )
      (3): TransformerBlock(
        (lin_in): Linear(in_features=256, out_features=256, bias=False)
        (lin_out): Linear(in_features=256, out_features=256, bias=False)
        (pos_nn): Sequential(
          (0): Sequential(
            (0): Sequential(
              (0): Linear(in_features=3, out_features=3, bias=True)
              (1): BatchNorm1d(3, eps=1e-05, momentum=0.1, affine=True, track_running_stats=True)
              (2): ReLU()
            )
          )
          (1): Linear(in_features=3, out_features=256, bias=True)
        )
        (attn_nn): Sequential(
          (0): BatchNorm1d(256, eps=1e-05, momentum=0.1, affine=True, track_running_stats=True)
          (1): ReLU()
          (2): Sequential(
            (0): Sequential(
              (0): Linear(in_features=256, out_features=32, bias=True)
              (1): BatchNorm1d(32, eps=1e-05, momentum=0.1, affine=True, track_running_stats=True)
              (2): ReLU()
            )
          )
          (3): Linear(in_features=32, out_features=256, bias=True)
        )
        (transformer): PointTransformerConv(256, 256)
        (bn1): BatchNorm1d(256, eps=1e-05, momentum=0.1, affine=True, track_running_stats=True)
        (bn2): BatchNorm1d(256, eps=1e-05, momentum=0.1, affine=True, track_running_stats=True)
        (bn3): BatchNorm1d(256, eps=1e-05, momentum=0.1, affine=True, track_running_stats=True)
      )
      (4): TransformerBlock(
        (lin_in): Linear(in_features=256, out_features=256, bias=False)
        (lin_out): Linear(in_features=256, out_features=256, bias=False)
        (pos_nn): Sequential(
          (0): Sequential(
            (0): Sequential(
              (0): Linear(in_features=3, out_features=3, bias=True)
              (1): BatchNorm1d(3, eps=1e-05, momentum=0.1, affine=True, track_running_stats=True)
              (2): ReLU()
            )
          )
          (1): Linear(in_features=3, out_features=256, bias=True)
        )
        (attn_nn): Sequential(
          (0): BatchNorm1d(256, eps=1e-05, momentum=0.1, affine=True, track_running_stats=True)
          (1): ReLU()
          (2): Sequential(
            (0): Sequential(
              (0): Linear(in_features=256, out_features=32, bias=True)
              (1): BatchNorm1d(32, eps=1e-05, momentum=0.1, affine=True, track_running_stats=True)
              (2): ReLU()
            )
          )
          (3): Linear(in_features=32, out_features=256, bias=True)
        )
        (transformer): PointTransformerConv(256, 256)
        (bn1): BatchNorm1d(256, eps=1e-05, momentum=0.1, affine=True, track_running_stats=True)
        (bn2): BatchNorm1d(256, eps=1e-05, momentum=0.1, affine=True, track_running_stats=True)
        (bn3): BatchNorm1d(256, eps=1e-05, momentum=0.1, affine=True, track_running_stats=True)
      )
      (5): TransformerBlock(
        (lin_in): Linear(in_features=256, out_features=256, bias=False)
        (lin_out): Linear(in_features=256, out_features=256, bias=False)
        (pos_nn): Sequential(
          (0): Sequential(
            (0): Sequential(
              (0): Linear(in_features=3, out_features=3, bias=True)
              (1): BatchNorm1d(3, eps=1e-05, momentum=0.1, affine=True, track_running_stats=True)
              (2): ReLU()
            )
          )
          (1): Linear(in_features=3, out_features=256, bias=True)
        )
        (attn_nn): Sequential(
          (0): BatchNorm1d(256, eps=1e-05, momentum=0.1, affine=True, track_running_stats=True)
          (1): ReLU()
          (2): Sequential(
            (0): Sequential(
              (0): Linear(in_features=256, out_features=32, bias=True)
              (1): BatchNorm1d(32, eps=1e-05, momentum=0.1, affine=True, track_running_stats=True)
              (2): ReLU()
            )
          )
          (3): Linear(in_features=32, out_features=256, bias=True)
        )
        (transformer): PointTransformerConv(256, 256)
        (bn1): BatchNorm1d(256, eps=1e-05, momentum=0.1, affine=True, track_running_stats=True)
        (bn2): BatchNorm1d(256, eps=1e-05, momentum=0.1, affine=True, track_running_stats=True)
        (bn3): BatchNorm1d(256, eps=1e-05, momentum=0.1, affine=True, track_running_stats=True)
      )
    )
    (3): Sequential(
      (0): TransitionDown(
        (mlp): Sequential(
          (0): Sequential(
            (0): Linear(in_features=256, out_features=512, bias=False)
            (1): BatchNorm1d(512, eps=1e-05, momentum=0.1, affine=True, track_running_stats=True)
            (2): ReLU()
          )
        )
      )
      (1): TransformerBlock(
        (lin_in): Linear(in_features=512, out_features=512, bias=False)
        (lin_out): Linear(in_features=512, out_features=512, bias=False)
        (pos_nn): Sequential(
          (0): Sequential(
            (0): Sequential(
              (0): Linear(in_features=3, out_features=3, bias=True)
              (1): BatchNorm1d(3, eps=1e-05, momentum=0.1, affine=True, track_running_stats=True)
              (2): ReLU()
            )
          )
          (1): Linear(in_features=3, out_features=512, bias=True)
        )
        (attn_nn): Sequential(
          (0): BatchNorm1d(512, eps=1e-05, momentum=0.1, affine=True, track_running_stats=True)
          (1): ReLU()
          (2): Sequential(
            (0): Sequential(
              (0): Linear(in_features=512, out_features=64, bias=True)
              (1): BatchNorm1d(64, eps=1e-05, momentum=0.1, affine=True, track_running_stats=True)
              (2): ReLU()
            )
          )
          (3): Linear(in_features=64, out_features=512, bias=True)
        )
        (transformer): PointTransformerConv(512, 512)
        (bn1): BatchNorm1d(512, eps=1e-05, momentum=0.1, affine=True, track_running_stats=True)
        (bn2): BatchNorm1d(512, eps=1e-05, momentum=0.1, affine=True, track_running_stats=True)
        (bn3): BatchNorm1d(512, eps=1e-05, momentum=0.1, affine=True, track_running_stats=True)
      )
      (2): TransformerBlock(
        (lin_in): Linear(in_features=512, out_features=512, bias=False)
        (lin_out): Linear(in_features=512, out_features=512, bias=False)
        (pos_nn): Sequential(
          (0): Sequential(
            (0): Sequential(
              (0): Linear(in_features=3, out_features=3, bias=True)
              (1): BatchNorm1d(3, eps=1e-05, momentum=0.1, affine=True, track_running_stats=True)
              (2): ReLU()
            )
          )
          (1): Linear(in_features=3, out_features=512, bias=True)
        )
        (attn_nn): Sequential(
          (0): BatchNorm1d(512, eps=1e-05, momentum=0.1, affine=True, track_running_stats=True)
          (1): ReLU()
          (2): Sequential(
            (0): Sequential(
              (0): Linear(in_features=512, out_features=64, bias=True)
              (1): BatchNorm1d(64, eps=1e-05, momentum=0.1, affine=True, track_running_stats=True)
              (2): ReLU()
            )
          )
          (3): Linear(in_features=64, out_features=512, bias=True)
        )
        (transformer): PointTransformerConv(512, 512)
        (bn1): BatchNorm1d(512, eps=1e-05, momentum=0.1, affine=True, track_running_stats=True)
        (bn2): BatchNorm1d(512, eps=1e-05, momentum=0.1, affine=True, track_running_stats=True)
        (bn3): BatchNorm1d(512, eps=1e-05, momentum=0.1, affine=True, track_running_stats=True)
      )
    )
  )
  (mlp_summit): TransitionSummit(
    (mlp_sub): Sequential(
      (0): Linear(in_features=512, out_features=512, bias=True)
      (1): ReLU()
    )
    (mlp): Sequential(
      (0): Sequential(
        (0): Linear(in_features=1024, out_features=512, bias=True)
        (1): BatchNorm1d(512, eps=1e-05, momentum=0.1, affine=True, track_running_stats=True)
        (2): ReLU()
      )
    )
  )
  (transformer_summit): Sequential(
    (0): TransformerBlock(
      (lin_in): Linear(in_features=512, out_features=512, bias=False)
      (lin_out): Linear(in_features=512, out_features=512, bias=False)
      (pos_nn): Sequential(
        (0): Sequential(
          (0): Sequential(
            (0): Linear(in_features=3, out_features=3, bias=True)
            (1): BatchNorm1d(3, eps=1e-05, momentum=0.1, affine=True, track_running_stats=True)
            (2): ReLU()
          )
        )
        (1): Linear(in_features=3, out_features=512, bias=True)
      )
      (attn_nn): Sequential(
        (0): BatchNorm1d(512, eps=1e-05, momentum=0.1, affine=True, track_running_stats=True)
        (1): ReLU()
        (2): Sequential(
          (0): Sequential(
            (0): Linear(in_features=512, out_features=64, bias=True)
            (1): BatchNorm1d(64, eps=1e-05, momentum=0.1, affine=True, track_running_stats=True)
            (2): ReLU()
          )
        )
        (3): Linear(in_features=64, out_features=512, bias=True)
      )
      (transformer): PointTransformerConv(512, 512)
      (bn1): BatchNorm1d(512, eps=1e-05, momentum=0.1, affine=True, track_running_stats=True)
      (bn2): BatchNorm1d(512, eps=1e-05, momentum=0.1, affine=True, track_running_stats=True)
      (bn3): BatchNorm1d(512, eps=1e-05, momentum=0.1, affine=True, track_running_stats=True)
    )
  )
  (decoders): ModuleList(
    (0): Sequential(
      (0): TransitionUp(
        (mlp_sub): Sequential(
          (0): Sequential(
            (0): Linear(in_features=512, out_features=256, bias=True)
            (1): BatchNorm1d(256, eps=1e-05, momentum=0.1, affine=True, track_running_stats=True)
            (2): ReLU()
          )
        )
        (mlp): Sequential(
          (0): Sequential(
            (0): Linear(in_features=256, out_features=256, bias=True)
            (1): BatchNorm1d(256, eps=1e-05, momentum=0.1, affine=True, track_running_stats=True)
            (2): ReLU()
          )
        )
      )
      (1): TransformerBlock(
        (lin_in): Linear(in_features=256, out_features=256, bias=False)
        (lin_out): Linear(in_features=256, out_features=256, bias=False)
        (pos_nn): Sequential(
          (0): Sequential(
            (0): Sequential(
              (0): Linear(in_features=3, out_features=3, bias=True)
              (1): BatchNorm1d(3, eps=1e-05, momentum=0.1, affine=True, track_running_stats=True)
              (2): ReLU()
            )
          )
          (1): Linear(in_features=3, out_features=256, bias=True)
        )
        (attn_nn): Sequential(
          (0): BatchNorm1d(256, eps=1e-05, momentum=0.1, affine=True, track_running_stats=True)
          (1): ReLU()
          (2): Sequential(
            (0): Sequential(
              (0): Linear(in_features=256, out_features=32, bias=True)
              (1): BatchNorm1d(32, eps=1e-05, momentum=0.1, affine=True, track_running_stats=True)
              (2): ReLU()
            )
          )
          (3): Linear(in_features=32, out_features=256, bias=True)
        )
        (transformer): PointTransformerConv(256, 256)
        (bn1): BatchNorm1d(256, eps=1e-05, momentum=0.1, affine=True, track_running_stats=True)
        (bn2): BatchNorm1d(256, eps=1e-05, momentum=0.1, affine=True, track_running_stats=True)
        (bn3): BatchNorm1d(256, eps=1e-05, momentum=0.1, affine=True, track_running_stats=True)
      )
    )
    (1): Sequential(
      (0): TransitionUp(
        (mlp_sub): Sequential(
          (0): Sequential(
            (0): Linear(in_features=256, out_features=128, bias=True)
            (1): BatchNorm1d(128, eps=1e-05, momentum=0.1, affine=True, track_running_stats=True)
            (2): ReLU()
          )
        )
        (mlp): Sequential(
          (0): Sequential(
            (0): Linear(in_features=128, out_features=128, bias=True)
            (1): BatchNorm1d(128, eps=1e-05, momentum=0.1, affine=True, track_running_stats=True)
            (2): ReLU()
          )
        )
      )
      (1): TransformerBlock(
        (lin_in): Linear(in_features=128, out_features=128, bias=False)
        (lin_out): Linear(in_features=128, out_features=128, bias=False)
        (pos_nn): Sequential(
          (0): Sequential(
            (0): Sequential(
              (0): Linear(in_features=3, out_features=3, bias=True)
              (1): BatchNorm1d(3, eps=1e-05, momentum=0.1, affine=True, track_running_stats=True)
              (2): ReLU()
            )
          )
          (1): Linear(in_features=3, out_features=128, bias=True)
        )
        (attn_nn): Sequential(
          (0): BatchNorm1d(128, eps=1e-05, momentum=0.1, affine=True, track_running_stats=True)
          (1): ReLU()
          (2): Sequential(
            (0): Sequential(
              (0): Linear(in_features=128, out_features=16, bias=True)
              (1): BatchNorm1d(16, eps=1e-05, momentum=0.1, affine=True, track_running_stats=True)
              (2): ReLU()
            )
          )
          (3): Linear(in_features=16, out_features=128, bias=True)
        )
        (transformer): PointTransformerConv(128, 128)
        (bn1): BatchNorm1d(128, eps=1e-05, momentum=0.1, affine=True, track_running_stats=True)
        (bn2): BatchNorm1d(128, eps=1e-05, momentum=0.1, affine=True, track_running_stats=True)
        (bn3): BatchNorm1d(128, eps=1e-05, momentum=0.1, affine=True, track_running_stats=True)
      )
    )
    (2): Sequential(
      (0): TransitionUp(
        (mlp_sub): Sequential(
          (0): Sequential(
            (0): Linear(in_features=128, out_features=64, bias=True)
            (1): BatchNorm1d(64, eps=1e-05, momentum=0.1, affine=True, track_running_stats=True)
            (2): ReLU()
          )
        )
        (mlp): Sequential(
          (0): Sequential(
            (0): Linear(in_features=64, out_features=64, bias=True)
            (1): BatchNorm1d(64, eps=1e-05, momentum=0.1, affine=True, track_running_stats=True)
            (2): ReLU()
          )
        )
      )
      (1): TransformerBlock(
        (lin_in): Linear(in_features=64, out_features=64, bias=False)
        (lin_out): Linear(in_features=64, out_features=64, bias=False)
        (pos_nn): Sequential(
          (0): Sequential(
            (0): Sequential(
              (0): Linear(in_features=3, out_features=3, bias=True)
              (1): BatchNorm1d(3, eps=1e-05, momentum=0.1, affine=True, track_running_stats=True)
              (2): ReLU()
            )
          )
          (1): Linear(in_features=3, out_features=64, bias=True)
        )
        (attn_nn): Sequential(
          (0): BatchNorm1d(64, eps=1e-05, momentum=0.1, affine=True, track_running_stats=True)
          (1): ReLU()
          (2): Sequential(
            (0): Sequential(
              (0): Linear(in_features=64, out_features=8, bias=True)
              (1): BatchNorm1d(8, eps=1e-05, momentum=0.1, affine=True, track_running_stats=True)
              (2): ReLU()
            )
          )
          (3): Linear(in_features=8, out_features=64, bias=True)
        )
        (transformer): PointTransformerConv(64, 64)
        (bn1): BatchNorm1d(64, eps=1e-05, momentum=0.1, affine=True, track_running_stats=True)
        (bn2): BatchNorm1d(64, eps=1e-05, momentum=0.1, affine=True, track_running_stats=True)
        (bn3): BatchNorm1d(64, eps=1e-05, momentum=0.1, affine=True, track_running_stats=True)
      )
    )
    (3): Sequential(
      (0): TransitionUp(
        (mlp_sub): Sequential(
          (0): Sequential(
            (0): Linear(in_features=64, out_features=32, bias=True)
            (1): BatchNorm1d(32, eps=1e-05, momentum=0.1, affine=True, track_running_stats=True)
            (2): ReLU()
          )
        )
        (mlp): Sequential(
          (0): Sequential(
            (0): Linear(in_features=32, out_features=32, bias=True)
            (1): BatchNorm1d(32, eps=1e-05, momentum=0.1, affine=True, track_running_stats=True)
            (2): ReLU()
          )
        )
      )
      (1): TransformerBlock(
        (lin_in): Linear(in_features=32, out_features=32, bias=False)
        (lin_out): Linear(in_features=32, out_features=32, bias=False)
        (pos_nn): Sequential(
          (0): Sequential(
            (0): Sequential(
              (0): Linear(in_features=3, out_features=3, bias=True)
              (1): BatchNorm1d(3, eps=1e-05, momentum=0.1, affine=True, track_running_stats=True)
              (2): ReLU()
            )
          )
          (1): Linear(in_features=3, out_features=32, bias=True)
        )
        (attn_nn): Sequential(
          (0): BatchNorm1d(32, eps=1e-05, momentum=0.1, affine=True, track_running_stats=True)
          (1): ReLU()
          (2): Sequential(
            (0): Sequential(
              (0): Linear(in_features=32, out_features=4, bias=True)
              (1): BatchNorm1d(4, eps=1e-05, momentum=0.1, affine=True, track_running_stats=True)
              (2): ReLU()
            )
          )
          (3): Linear(in_features=4, out_features=32, bias=True)
        )
        (transformer): PointTransformerConv(32, 32)
        (bn1): BatchNorm1d(32, eps=1e-05, momentum=0.1, affine=True, track_running_stats=True)
        (bn2): BatchNorm1d(32, eps=1e-05, momentum=0.1, affine=True, track_running_stats=True)
        (bn3): BatchNorm1d(32, eps=1e-05, momentum=0.1, affine=True, track_running_stats=True)
      )
    )
  )
  (mlp_output): Sequential(
    (0): Sequential(
      (0): Sequential(
        (0): Linear(in_features=32, out_features=32, bias=True)
        (1): BatchNorm1d(32, eps=1e-05, momentum=0.1, affine=True, track_running_stats=True)
        (2): ReLU()
      )
    )
    (1): Linear(in_features=32, out_features=13, bias=True)
  )
)
[2021-12-10 18:27:01,795 INFO train.py line 171 11219] train_data samples: '6120'
Totally 204 samples in train set.
Totally 68 samples in val set.
Totally 204 samples in train set.
Totally 68 samples in val set.
[2021-12-10 18:27:23,467 INFO train.py line 345 11219] Epoch: [1/100][1/6120] Data 3.265 (3.265) Batch 21.670 (21.670) Remain 3683:54:56 Loss 2.7135 Accuracy 0.0305.
…
